{"loss": "categorical_crossentropy", "optimizer": {"nesterov": true, "lr": 9.999999747378752e-05, "name": "SGD", "momentum": 0.8999999761581421, "decay": 9.999999974752427e-07}, "class_name": "Sequential", "keras_version": "1.0.5", "config": [{"class_name": "ZeroPadding2D", "config": {"padding": [1, 1], "batch_input_shape": [null, 3, 92, 92], "trainable": true, "name": "zeropadding2d_1", "input_dtype": "float32"}}, {"class_name": "Convolution2D", "config": {"W_constraint": null, "b_constraint": null, "name": "convolution2d_1", "activity_regularizer": null, "trainable": true, "dim_ordering": "th", "nb_col": 3, "subsample": [1, 1], "init": "glorot_uniform", "bias": true, "nb_filter": 24, "border_mode": "same", "b_regularizer": null, "W_regularizer": null, "activation": "relu", "nb_row": 3}}, {"class_name": "MaxPooling2D", "config": {"name": "maxpooling2d_1", "trainable": true, "dim_ordering": "th", "pool_size": [2, 2], "strides": [2, 2], "border_mode": "valid"}}, {"class_name": "Convolution2D", "config": {"W_constraint": null, "b_constraint": null, "name": "convolution2d_2", "activity_regularizer": null, "trainable": true, "dim_ordering": "th", "nb_col": 3, "subsample": [1, 1], "init": "glorot_uniform", "bias": true, "nb_filter": 48, "border_mode": "same", "b_regularizer": null, "W_regularizer": null, "activation": "relu", "nb_row": 3}}, {"class_name": "MaxPooling2D", "config": {"name": "maxpooling2d_2", "trainable": true, "dim_ordering": "th", "pool_size": [2, 2], "strides": [2, 2], "border_mode": "valid"}}, {"class_name": "Flatten", "config": {"trainable": true, "name": "flatten_1"}}, {"class_name": "Dense", "config": {"W_constraint": null, "b_constraint": null, "name": "dense_1", "activity_regularizer": null, "trainable": true, "init": "glorot_uniform", "bias": true, "input_dim": null, "b_regularizer": null, "W_regularizer": null, "activation": "relu", "output_dim": 500}}, {"class_name": "Dropout", "config": {"p": 0.5, "trainable": true, "name": "dropout_1"}}, {"class_name": "Dense", "config": {"W_constraint": null, "b_constraint": null, "name": "dense_2", "activity_regularizer": null, "trainable": true, "init": "glorot_uniform", "bias": true, "input_dim": null, "b_regularizer": null, "W_regularizer": null, "activation": "softmax", "output_dim": 150}}, {"class_name": "Dense", "config": {"W_constraint": null, "b_constraint": null, "name": "dense_3", "activity_regularizer": null, "trainable": true, "init": "glorot_uniform", "bias": true, "input_dim": null, "b_regularizer": null, "W_regularizer": null, "activation": "softmax", "output_dim": 12}}], "sample_weight_mode": null}